…
2023-05-11 17:58:57.778510: I tensorflow/core/platform/cpu_feature_guard.cc:193] This TensorFlow binary is optimized with oneAPI Deep Neural Network Library (oneDNN) to use the following CPU instructions in performance-critical operations:  AVX2   
To enable them in other operations, rebuild TensorFlow with the appropriate compiler flags.
2023-05-11 17:58:57.787580: I tensorflow/core/common_runtime/process_util.cc:146] Creating new thread pool with default inter op setting: 2. Tune using inter_op_parallelism_threads for best performance.
Model: "sequential"
_________________________________________________________________
 Layer (type)                Output Shape              Param #
=================================================================
 flatten (Flatten)           (None, 1690)              0

 dense (Dense)               (None, 512)               865792

 dropout (Dropout)           (None, 512)               0

 dense_1 (Dense)             (None, 256)               131328

 dropout_1 (Dropout)         (None, 256)               0

 dense_2 (Dense)             (None, 64)                16448

 dropout_2 (Dropout)         (None, 64)                0

 dense_3 (Dense)             (None, 10)                650

=================================================================
Total params: 1,014,218
Trainable params: 1,014,218
Non-trainable params: 0
_________________________________________________________________
Epoch 1/50
219/219 [==============================] - 4s 13ms/step - loss: 26.8936 - accuracy: 0.1288 - val_loss: 3.4324 - val_accuracy: 0.1020
Epoch 2/50
219/219 [==============================] - 2s 10ms/step - loss: 5.6169 - accuracy: 0.1086 - val_loss: 3.4033 - val_accuracy: 0.1077
…
